lib/ares/ares_release/data/weights.ckpt (torch_old, 141427 bytes, 169 tensors)

lin1.kernel.weight f4 [96]
000000 5f 47 6d 3f d8 a8 8c be b5 43 c2 bd 00 8d 10 3b
       0.9268703 -0.27472568 -0.0948557 0.0022056699
000010 4c 8a ea 3c 14 c2 4e 3f e2 2b 24 bf ec a6 8e bd
       0.028630398 0.8076489 -0.6412946 -0.069654316
000020 fb 4e 4c be 64 c4 07 be 31 40 d8 3d 10 de a4 bc
       -0.19952004 -0.13258511 0.105591185 -0.020125419
000030 f7 13 6e 3d ad c1 24 bf b2 6a fb 3e 8e 81 e9 3e
       0.05812451 -0.64358026 0.4910484 0.45606655
000040 06 ae 0f 3f 32 00 ed bc fd f0 ff bd 40 df 24 bc
       0.56124914 -0.028930757 -0.12497137 -0.010062993
000050 fa 48 8a bf 31 11 12 3e 1d 02 8d 3e 5e c2 da be
       -1.0803521 0.1426437 0.27540675 -0.42726415
000060 30 5c 8e bf 08 15 94 3e 18 95 d4 3d e0 6b ff 3c
       -1.1121883 0.28922296 0.1038 0.031179368
000070 84 88 bd 3e bc f2 33 bf f2 62 36 3f 32 7a c6 3e
       0.37018216 -0.7029226 0.7124473 0.38765103
000080 26 8f 2c 3e 63 cb 52 3f 2f 45 13 be 7f f9 b3 be
       0.16851482 0.82341594 -0.1438186 -0.35151288
000090 af ac 0d 3f d7 6a 74 be ac 98 a1 3e 4b c2 71 be
       0.5534162 -0.23868881 0.31561792 -0.23609273
0000a0 79 16 d5 3e ec 20 c7 3f 39 ee 27 bf fc 8e 2f be
       0.41618708 1.5556922 -0.65597874 -0.17144388
0000b0 65 a0 88 be 92 1b 39 bf ac 93 d4 3c 78 84 ba 3d
       -0.2668487 -0.72307694 0.025949322 0.09107298
0000c0 7b a0 be be c8 bf 1d 3f 9b 65 cd 3e 07 b2 cc be
       -0.37231812 0.6162076 0.4011658 -0.39979574
0000d0 31 45 4c bf 5b 7a 94 3e 4b 86 8e 3e e2 9f e2 3e
       -0.7979308 0.289996 0.27836832 0.44262606
0000e0 ce be a7 3d 52 4c 4d bf 32 84 36 3f c0 8f ff 3c
       0.0819069 -0.8019458 0.71295464 0.031196475
0000f0 ed a0 b3 be f9 20 96 bf bf 31 8e 3e 00 35 99 3c
       -0.35083714 -1.1728812 0.27772328 0.01870203
000100 ed a0 85 bd 2e 89 10 3e 48 31 82 3e 64 6b 0f be
       -0.06524835 0.1411483 0.25428224 -0.1400581
000110 77 84 69 bf 84 c5 0f be d6 0b a5 3e 78 ac cb 3e
       -0.9121775 -0.1404019 0.32235593 0.3978002
000120 e2 a2 4f 3e 28 b2 42 3f e1 f2 4f bd 64 26 1a 3e
       0.20276979 0.76053095 -0.050768737 0.15053707
000130 1c 0b b7 bd 3c a4 cd bd 5b 1e cc bd dc bc 7e be
       -0.08937666 -0.10041091 -0.09966727 -0.24876732
000140 05 81 3d 3e 74 da ce 3e 9c cb e4 bd bc 28 47 3e
       0.18506248 0.40401042 -0.11171648 0.19449133
000150 b1 6c 5e be b6 7b 75 3d 18 18 f3 3e ec c3 c2 bd
       -0.2172115 0.059932433 0.4747932 -0.095100254
000160 9e 2b a0 be ba 9d 93 bf 3a b7 ae 3d 18 27 3c 3e
       -0.31283277 -1.1532509 0.085310414 0.18374288
000170 22 91 cc 3e 46 d9 bd 3f a2 a4 f6 be 30 4c c4 bd
       0.39954478 1.4831932 -0.4817248 -0.09584844

lin1.kernel.bias f4 [24]
000000 b7 f6 80 bd fc 97 56 bd 5a 28 c5 bd bb f6 27 bd
       -0.06297057 -0.052391037 -0.09626837 -0.041006785
000010 1e e2 0f 3e fc 26 bb bd a4 fb 2f bd fc 6f 6c 3d
       0.140511 -0.09138295 -0.042964593 0.057723984
000020 bc 71 e7 3b 47 8c a2 3d 65 9a 78 3e c1 a5 1f be
       0.0070631187 0.07936912 0.24277647 -0.15590574
000030 86 1a ca 3d 83 ba ef bd c9 d1 1c 3d 9f 65 00 be
       0.0986834 -0.11705496 0.038286004 -0.12538765
000040 0d 01 80 bd eb b3 81 be 40 07 01 be 86 b4 96 3d
       -0.062502004 -0.2533258 -0.12600422 0.07358651
000050 2d 79 27 bd bb e3 e7 bd 26 c5 1d be 3d 11 28 3e
       -0.040887047 -0.11322733 -0.15407237 0.16412826

conv10.kernel.R.position f4 [12]
000000 00 00 00 00 e9 a2 8b 3f e9 a2 0b 40 5d 74 51 40
       0.0 1.0909091 2.1818182 3.2727273
000010 e9 a2 8b 40 a3 8b ae 40 5d 74 d1 40 17 5d f4 40
       4.3636365 5.4545455 6.5454545 7.6363635
000020 e9 a2 0b 41 46 17 1d 41 a3 8b 2e 41 00 00 40 41
       8.727273 9.818182 10.909091 12.0

conv10.kernel.R.f.biases.0 f4 [12]
000000 2b 25 1b bb 21 23 c2 3d bc 62 6d 3e 3a 27 37 bc
       -0.0023673277 0.094793566 0.23182195 -0.011178786
000010 27 aa 0d be e8 5e b4 bb 0e a7 5c 3e ba 7d 72 bd
       -0.13834439 -0.005504478 0.21548101 -0.059201933
000020 55 2d 9f be e8 d4 c4 bd ce 45 45 3b 32 c4 13 be
       -0.31089273 -0.09610921 0.0030101421 -0.14430311

conv10.kernel.R.f.biases.1 f4 [24]
000000 b1 5a 93 bd 0a ce e3 3d 60 24 ac 3d 44 8b e4 bd
       -0.071950324 0.11123283 0.084053755 -0.11159375
000010 0c 65 1b be c3 eb ac bd 1b fb 03 bd f5 df 8d bb
       -0.15175265 -0.084434055 -0.032221895 -0.0043296763
000020 58 5b e0 3c c2 20 91 be e0 af bf bc d9 0c c0 be
       0.027387306 -0.28345305 -0.023399293 -0.37509802
000030 27 d0 80 bb 91 39 3e bd d0 fb 98 bb 38 ba 54 3e
       -0.0039310637 -0.04644162 -0.0046686903 0.20774162
000040 74 61 e4 bc 13 be be be d3 f7 6b 3d b3 36 75 bd
       -0.0278785 -0.3725439 0.05760939 -0.05986662
000050 42 53 fa 3c 26 8c 8c 3c c0 8b d7 3c e2 e5 a9 3c
       0.030557279 0.017156672 0.026311755 0.0207395

conv10.kernel.linear.weight f4 [576]
000000 d1 5c c7 3f c8 67 af bf cf e3 cf bf 16 1e d1 be
       1.55752 -1.3703547 -1.6241397 -0.40843266
000010 c3 c4 eb bf 32 8e 21 bd aa 33 3b 40 c7 33 9c bf
       -1.8419422 -0.03944225 2.9250283 -1.2203301
000020 06 9e 86 3f af 38 57 3f 67 d9 86 be 52 31 55 bd
       1.0516975 0.8407087 -0.2633774 -0.05204899
000030 ce 63 af bd 06 84 8a bf 34 ce 68 bf 4d de 12 3f
       -0.08563958 -1.082154 -0.9093964 0.57370454
000040 06 e1 a6 3f 94 30 77 3f f5 25 3a bf e4 18 cc be
       1.3037422 0.965585 -0.7271417 -0.3986274
000050 02 7d ee be 40 64 db 3f a5 51 6e be 24 1e 8a bf
       -0.46579748 1.7139969 -0.23273332 -1.0790448
000060 61 46 e3 3d 50 19 a6 bf 65 d2 58 bf 8a f8 73 3f
       0.11097408 -1.2976475 -0.84696037 0.95301116
000070 37 11 62 be 22 7f 4a be 93 6f f3 be 4c 68 b5 3e
       -0.2207688 -0.1977506 -0.47546062 0.35431135
000080 b5 43 92 3f 86 8b 5f 3f 8e 79 90 3f 07 bc 50 3f
       1.1426913 0.8732227 1.1287096 0.81536907
000090 9b f0 a2 3f 49 f1 95 3e da df 1e be a2 ed 83 3e
       1.2729677 0.29285648 -0.1551508 0.25767237
0000a0 22 60 7f bf 8c 64 38 bf 6c 2b 9a bf 34 ca 61 bf
       -0.9975606 -0.7202842 -1.2044501 -0.8819916
0000b0 b5 26 91 bf 18 2b 03 bd 75 68 88 bf f1 d3 57 3f
       -1.1339937 -0.03202352 -1.0656878 0.8430777
0000c0 df ab 01 40 67 c0 8e 3e 3c 09 6a be b9 f2 91 3f
       2.0261152 0.27881166 -0.22855085 1.1402198
0000d0 f2 8a 3c be 58 4c 27 bf 1d df 7d bf c6 eb e9 3d
       -0.18412378 -0.65350866 -0.9916857 0.11421923
0000e0 c7 1b cf be ce 15 65 bf bc f0 3f bf d9 c9 46 3e
       -0.4045088 -0.89486396 -0.74976707 0.19412936
0000f0 b8 eb 1c 3f 2c a5 04 3f 72 9f 08 3e e3 29 d2 bf
       0.6129718 0.5181453 0.13342074 -1.6419033
000100 88 6a 8c bf 59 6c 61 3f da 12 3e bf e8 7e 33 3d
       -1.0970011 0.8805595 -0.74247515 0.0438222
000110 44 3e 6f bf c5 76 5b bf c0 62 0b 40 4f 8b 55 bf
       -0.93454385 -0.857281 2.1779022 -0.83415693
000120 b0 5a 30 bf ab c8 48 3e 4d 49 4e 3e ff 29 b7 3e
       -0.6888838 0.19607799 0.2014515 0.35774228
000130 fa ab ae 3f ab d1 21 3f ca b7 a5 3f 4e e6 07 40
       1.3646233 0.6321055 1.2946713 2.1234317
000140 06 08 17 be 03 db a8 bf b7 b6 eb be e7 1a ab 3f
       -0.14749154 -1.3191837 -0.46037838 1.3367585
000150 52 04 59 3f 18 7b 9e bf 88 35 ce bf d6 c2 13 40
       0.8477222 -1.2381315 -1.6110086 2.3087668
000160 94 65 b5 3e 96 29 bf 3f be df 3a bf 9a 21 ab bf
       0.3542906 1.4934566 -0.72997653 -1.3369629
000170 f4 85 db 3e 86 0b cd be 40 d2 92 bf 7f 49 5f bf
       0.42875636 -0.40047854 -1.1470413 -0.8722152
000180 e4 a1 80 3d 56 68 47 3d 75 e3 25 3f 3a b1 ca 3b
       0.06280878 0.048683487 0.64800197 0.006185678
000190 28 9b 18 3f 6e d9 95 be f6 2e 68 bf e7 e3 c6 bc
       0.5961175 -0.29267448 -0.90696657 -0.024278594
0001a0 40 e4 09 bf ec db be 3e 63 3b 15 3f 7c df c2 3f
       -0.53863907 0.37277162 0.5829374 1.5224452
0001b0 ff a9 af bc 18 28 d5 bf 9c 51 2a bf de b5 1e bd
       -0.021443365 -1.6652861 -0.66530776 -0.03874766
0001c0 e0 d7 41 3f 33 f2 f9 3d 1d ce ca bf ec 78 bd bf
       0.75720024 0.12204399 -1.5844151 -1.4802527
0001d0 ea ac a3 3f d7 2e 66 bf 8f 9b 4e be 6e 3d b2 be
       1.2787144 -0.8991522 -0.20176528 -0.34812492
0001e0 a3 26 ae 3f 1e d6 90 be f7 fe a3 3f 64 4d 82 bf
       1.3605541 -0.28288358 1.2812184 -1.0179868
0001f0 1c 2f 99 bf 6e c6 37 3e 96 a5 64 3f 68 74 9b 3d
       -1.1967502 0.17946789 0.89315164 0.07590562
000200 db 33 86 3f 3b 91 55 3d 17 58 49 bf aa 39 19 bf
       1.0484575 0.052140456 -0.7865004 -0.59853613
000210 b0 fd 36 40 4a e2 1b 3f 27 17 04 3c 64 8b d0 be
       2.8592339 0.60892165 0.008062161 -0.40731347
000220 39 8d b4 bf 71 59 fe 3f ce a3 9e bf 7f 63 67 3f
       -1.4105598 1.9871045 -1.2393739 0.90386194
000230 e5 7f 4b bf 24 2a 61 bf fb e5 54 3f 52 5b ad 3f
       -0.79492027 -0.87954926 0.8316342 1.3543494
000240 6a a7 f2 3d 95 61 12 3f cd ef df be 9e f9 b2 bf
       0.11848338 0.5718015 -0.4373764 -1.3982427
000250 1f e5 12 c0 77 c3 8e 3d 9d 35 db be 2b ea ac bd
       -2.2952344 0.06970876 -0.4281434 -0.084431015
000260 78 d0 1f 3f 8c 6b 6d bf 72 af ff be e8 9a 5f 3f
       0.62427473 -0.9274223 -0.49938542 0.87345743
000270 db 85 35 40 af 82 08 bf 44 20 26 c0 7f ca 92 3e
       2.836295 -0.5332441 -2.5957193 0.28670117
000280 95 aa c3 3f 2b 1a d6 bf 6d 45 01 40 eb 92 a6 bf
       1.5286433 -1.6726736 2.0198624 -1.3013586
000290 34 1e 65 bd a4 68 4c 3f 19 05 59 40 69 f7 19 3f
       -0.055937007 0.7984717 3.3909361 0.6014314
0002a0 70 63 70 bf 8a 8e ad 3f 80 e6 48 bf e9 d9 e1 be
       -0.9390173 1.3559124 -0.78476715 -0.44111565
0002b0 33 dc 2c bf 1c 12 1b bf d6 44 cf bf 69 22 4e 3f
       -0.675235 -0.6057451 -1.6192882 0.80521256
0002c0 82 de 90 3f 17 54 56 3f 79 e9 23 bd b4 bd 5f bf
       1.1317904 0.8372206 -0.04001758 -0.8739884
0002d0 ff 1e ff bf 48 6a 4f 3f c7 a5 19 bf 09 a4 f6 bd
       -1.9931334 0.8102155 -0.6001858 -0.12043006
0002e0 17 01 0e c0 4c 9f 38 be bd 18 0a 40 df bb 6f 3f
       -2.2188165 -0.18029517 2.15776 0.93646044
0002f0 d4 66 b3 be 30 e3 92 be cc 42 86 bd 80 a8 68 bf
       -0.3503939 -0.28688955 -0.06555709 -0.9088211
000300 71 1c 57 bf 86 e6 c0 be 23 b9 18 bf 1e 8b 20 3f
       -0.84027773 -0.37675875 -0.59657496 0.62712276
000310 2f 96 0b c0 9c a1 1d bf 09 a2 67 bf 1e e9 23 be
       -2.1810415 -0.6157472 -0.9048162 -0.16006896
000320 9f 02 f8 bf c1 17 5f be a7 df 8d bc 12 85 80 c0
       -1.93758 -0.21786405 -0.01731856 -4.016244
000330 39 93 b5 bd a1 45 51 3f 32 68 e7 3c 3c ed 78 3e
       -0.08865971 0.8174687 0.028247926 0.24309248
000340 3c e5 03 3e 86 8c d6 3e d8 3b 93 be 26 e0 c1 3d
       0.12880415 0.41904086 -0.28756595 0.09466581
000350 a8 67 ff bf 19 cd 99 bf 5d 44 4b 3e c2 6a 60 3e
       -1.9953508 -1.2015716 0.19850297 0.21915725
000360 a5 ba e7 3d 98 0f 2a bf 38 f9 ef 3e 89 cf d5 bd
       0.113148965 -0.66430044 0.46869826 -0.10439975
000370 9d a4 9b 3f fd 76 7b 3f 62 0f 2a 3f a5 4b 6d be
       1.2159611 0.98228437 0.6642972 -0.23173387
000380 54 0b 11 bf ac 1e 9b be a5 43 69 3f 61 2d a1 bb
       -0.5665791 -0.30296838 0.9111884 -0.0049187397
000390 38 eb ad 3f 4e 54 d5 3e 46 3d eb be 43 08 2c be
       1.3587408 0.41665882 -0.45945185 -0.16800027
0003a0 b5 3b f5 3e 99 e4 fe bf 55 6a a4 be 03 db 8a 3f
       0.47897115 -1.9913512 -0.32112375 1.0848087
0003b0 3b 06 11 bd d8 d8 8f bf af 8c 66 bf e7 10 d0 bf
       -0.035406332 -1.123805 -0.90058416 -1.6255158
0003c0 71 e6 64 bf eb 0c e0 3f dd 2c 1d 3f 23 db c2 bf
       -0.89414126 1.7503942 0.6139658 -1.5223125
0003d0 9c 11 d2 be df d5 82 3d f8 ee 23 3e f7 c3 fe 3d
       -0.4102906 0.06388449 0.16009128 0.12439721
0003e0 a3 d9 bd be 1e 9d fd be 79 40 5b 3f 27 e7 37 3f
       -0.37080106 -0.49533933 0.8564525 0.71837085
0003f0 dd 23 f4 be a1 bd df be d2 0d b1 be 07 e1 36 3f
       -0.47683612 -0.43699363 -0.34580857 0.71437114

conv10.kernel.linear.bias f4 [24]
000000 80 ef 49 bf b6 93 6c bf 0f 83 6d 3f 02 6e aa 3d
       -0.78881073 -0.9241289 0.92778105 0.083217636
000010 57 44 8c be 67 1f 27 3f c1 4b fb bf ba 32 cf 3e
       -0.2739589 0.6528229 -1.9632493 0.4046839
000020 c5 0a 90 3f 6a d8 59 3f 03 16 22 be a9 25 5e 3f
       1.1253287 0.85095847 -0.1582871 0.86776215
000030 4c a7 80 bc c0 1d 1d bf 64 e7 97 3f f8 94 a3 3e
       -0.015704773 -0.6137352 1.186749 0.31949592
000040 f9 ee 91 3d 45 a3 d4 3e 3b 91 ac be 70 c2 d8 be
       0.071256585 0.41530815 -0.33704552 -0.42335844
000050 bf 72 90 3f e6 3b 59 bf 61 e2 bb 3f 55 79 8d 3f
       1.1285018 -0.8485702 1.467846 1.1052653

conv11.kernel.R.position f4 [12]
000000 00 00 00 00 e9 a2 8b 3f e9 a2 0b 40 5d 74 51 40
       0.0 1.0909091 2.1818182 3.2727273
000010 e9 a2 8b 40 a3 8b ae 40 5d 74 d1 40 17 5d f4 40
       4.3636365 5.4545455 6.5454545 7.6363635
000020 e9 a2 0b 41 46 17 1d 41 a3 8b 2e 41 00 00 40 41
       8.727273 9.818182 10.909091 12.0

conv11.kernel.R.f.biases.0 f4 [12]
000000 23 dd 53 be d2 a3 b7 bc e2 4b bc 3e 7c dc c2 bd
       -0.20689826 -0.022416983 0.36776644 -0.0951471
000010 aa a1 8f 3d 0e 4d 46 bd ec 85 9d 3e 5a 1c 7a bd
       0.07013257 -0.04841333 0.30766237 -0.061062194
000020 8b b8 68 3d be d8 2f 3d 8e 39 1b 3e b4 67 8b 3c
       0.05681662 0.04293131 0.15158674 0.017017223

conv11.kernel.R.f.biases.1 f4 [24]
000000 88 ee e9 bc 7f c2 be bd de 5b 6c 3c a8 18 be 3d
       -0.028556123 -0.09314441 0.0144262 0.092820466
000010 a3 c8 ee 3d 0d 87 29 bd 73 89 b5 bd 1f 6c 72 be
       0.11659362 -0.04138856 -0.08864107 -0.23674057
000020 9a ee 1a bd 53 f7 25 be ff 17 15 3f a3 71 f0 3d
       -0.037825204 -0.16207628 0.5823974 0.117404245
000030 24 0a a2 bd 7e a7 33 be 14 f4 1b 3e 5e 61 d9 be
       -0.079120904 -0.17544362 0.15229827 -0.42457098
000040 d7 14 f4 bc e6 41 61 3d dd ce 66 bd 22 b3 f9 bc
       -0.029795093 0.054994486 -0.056349624 -0.030480925
000050 93 52 ab 3c ab 42 a7 3d f5 20 d1 bd 8e 19 14 bf
       0.020913398 0.08167013 -0.10211364 -0.57851493

conv12.kernel.R.position f4 [12]
000000 00 00 00 00 e9 a2 8b 3f e9 a2 0b 40 5d 74 51 40
       0.0 1.0909091 2.1818182 3.2727273
000010 e9 a2 8b 40 a3 8b ae 40 5d 74 d1 40 17 5d f4 40
       4.3636365 5.4545455 6.5454545 7.6363635
000020 e9 a2 0b 41 46 17 1d 41 a3 8b 2e 41 00 00 40 41
       8.727273 9.818182 10.909091 12.0

conv12.kernel.R.f.biases.0 f4 [12]
000000 83 73 7c 3e 04 51 84 bd 09 5b 83 3d f5 73 39 bd
       0.24653439 -0.06460765 0.06413848 -0.0452766
000010 13 3b 24 be 1f a4 1f be df f1 98 3e 23 68 51 3e
       -0.1603816 -0.15589951 0.29872033 0.20449881
000020 58 04 14 be 66 5c 29 be 5b eb 8f 3d 8e 9c 8c bd
       -0.14454782 -0.16539153 0.07027312 -0.06865798

conv12.kernel.R.f.biases.1 f4 [24]
000000 fd 50 86 3e 66 51 4e 3c ea 60 9a bd 88 93 8b 3d
       0.26233664 0.012592649 -0.07538016 0.06815249
000010 53 84 4f be 82 b0 3a be e6 4f 9f 3e b5 78 b2 bc
       -0.20265321 -0.18231395 0.31115645 -0.021786073
000020 9c cc 17 be fe 0d fb bd 4b e4 34 3d 4d 3b df 3d
       -0.14824146 -0.12258528 0.04416303 0.108999826
000030 b7 02 5d 3d a7 3c 60 3e 58 27 3d 3e 11 69 18 3e
       0.053957667 0.21898137 0.1847204 0.1488383
000040 38 bf 3e 3e 0f 69 05 bb 10 52 d0 bd f3 cb b7 bd
       0.18627632 -0.002035681 -0.10171902 -0.08974447
000050 fe 2a bf bd de 50 a3 be a7 7d 02 bd a4 47 6c be
       -0.09334372 -0.31897634 -0.031858113 -0.23074204

lin20.kernel.weight f4 [576]
000000 04 a6 38 3e 60 24 5f be 85 70 8b be 79 f7 82 be
       0.1803208 -0.2179122 -0.27234283 -0.25579432
000010 35 5b f8 bc b1 01 3b 3e c9 f4 2c 3e 52 e6 8c 3e
       -0.030316928 0.18262364 0.16890253 0.2751947
000020 56 28 5d be b6 28 83 3e c1 c0 6c 3d 39 09 2c 3b
       -0.21597418 0.25616997 0.057801012 0.0026250614
000030 35 ff 73 bd 23 36 0a be a8 50 2e be be ca 11 bc
       -0.059569556 -0.13497214 -0.17022955 -0.008898435
000040 47 dc 3a be a1 e4 f1 3d 7e 07 9a be ba f4 30 3e
       -0.18248092 0.11811186 -0.3008384 0.17280856
000050 da 7a 47 3e 0a 9d 93 3d f7 0f 2f be 1e 6e 10 be
       0.19480458 0.07207687 -0.17095934 -0.14104506
000060 1d 6f f9 3e 13 d0 b4 3e 8b 4f 4a 3e 91 c8 de bc
       0.48717585 0.35314998 0.19756906 -0.027195247
000070 ec b9 11 3e 32 7b 8d be 3d 64 f9 3c d3 07 48 3c
       0.1423108 -0.27633053 0.030443305 0.012208897
000080 58 39 3d 3d 9c 09 f4 3e 71 96 3c bf 75 38 12 bf
       0.046197265 0.4766358 -0.73667055 -0.57117397
000090 20 e9 e7 bd 89 59 d3 be a2 8f 41 3d d7 6c be be
       -0.11323762 -0.41279247 0.04725612 -0.37192413
0000a0 48 fa 34 be 3f 72 ec be e3 77 86 3d 7f 70 a9 3d
       -0.176736 -0.46180913 0.06565835 0.0827341
0000b0 72 10 54 3e e6 c0 61 be a1 c4 1b bf 1d 61 2a 3f
       0.20709398 -0.22046241 -0.60846907 0.66554433
0000c0 d6 4d 9e 3d b6 3c 82 be 44 23 ac 3d f6 5d 95 be
       0.0772969 -0.25436944 0.08405164 -0.2917325
0000d0 b6 ad db be e8 02 8a 3c ac 0f 1a bd bd e3 04 3e
       -0.42905968 0.016847089 -0.037612602 0.129775
0000e0 34 ff 1f 3e c9 bf 28 3d 13 30 ce 3e 18 cf e6 3e
       0.15624696 0.041198526 0.40271053 0.45079875
0000f0 02 3a d6 3d d0 20 3e be 7c 5d 89 3c 90 4f ad bb
       0.10460283 -0.18567204 0.01676821 -0.0052890256
000100 6b 12 ba 3e 67 a9 c4 3d 80 c8 49 be 35 13 3b be
       0.36342177 0.096026234 -0.19705391 -0.18269046
000110 90 e5 ff 3d 90 e2 0c 3d e6 d1 39 3f 01 5b 2d bf
       0.124949574 0.034395754 0.72585905 -0.67716986
000120 8f 0b 08 3d ce b2 13 bf af 88 c7 be 58 49 45 3d
       0.033214148 -0.5769471 -0.3897147 0.04816565
000130 e6 0e 0a 3e 48 2b d0 be 0e ae 65 be 61 89 45 3d
       0.13482246 -0.4065802 -0.22429678 0.048226718
000140 7e 0e 8b 3e 76 23 b0 bd d9 66 10 be 3e aa b4 3d
       0.27159494 -0.08600514 -0.14101733 0.088215336
000150 f4 2d 14 bc 71 25 71 3e f8 3f 22 bd da 4b fc bd
       -0.009044159 0.23549439 -0.039611787 -0.12319155
000160 41 5c 87 be 0e 85 b9 3e a1 99 26 be db 69 09 bd
       -0.26437572 0.36234325 -0.16269542 -0.033548217
000170 7c a6 50 bd ef de bc 3d ce b7 d1 3e 12 fb 35 be
       -0.050940022 0.09222209 0.40960544 -0.17771557
000180 f0 23 86 be 60 69 6c be 41 13 05 3e 85 78 39 bd
       -0.26199293 -0.23087072 0.12995626 -0.045280952
000190 1e 87 56 3e 64 68 c1 3d cc 56 98 3c a9 9c 05 be
       0.2094998 0.09443739 0.018596075 -0.13048042
0001a0 5a c7 ce 3a ca 0e a4 be 26 74 1c be 89 1e ee bc
       0.0015775964 -0.32042533 -0.15278682 -0.029067295
0001b0 e0 fa 89 3d 6c ff 7e bc 4e d5 2d be ea 45 a0 3e
       0.06737304 -0.015563827 -0.169759 0.3130334
0001c0 2e 89 17 3e c2 be 67 be 82 d7 bf 3c a1 4d c3 3c
       0.14798424 -0.22631362 0.023418192 0.023840727
0001d0 90 d0 9e 3d e9 6f 1e be d8 8e 02 3d 87 37 27 be
       0.07754624 -0.15472378 0.031874508 -0.16329776
0001e0 f5 f3 af bd 9e c4 ad be 9b 62 09 be cf 67 dd 3d
       -0.08591453 -0.3393907 -0.13416521 0.108108155
0001f0 cc 7b 63 3e 2f 81 14 bd 04 29 23 be 7e b6 57 bd
       0.22215194 -0.03625601 -0.15933615 -0.052664272
000200 e6 8b 8a 3e 38 a3 4a be bd 61 3e 3e 0b 3c 45 be
       0.2705986 -0.19788826 0.18591972 -0.19261186
000210 a8 1e 9c bc 7f c8 67 be 90 2f 06 3e 12 3d 62 3d
       -0.019057587 -0.22635077 0.13104081 0.055234022
000220 1c d0 1f be e2 d4 35 3e d4 04 e6 3c 86 f0 03 bd
       -0.15606731 0.1775699 0.028078474 -0.032211803
000230 7b af b7 be c4 41 33 3e 3a 50 0f 3f d9 f7 eb be
       -0.35876068 0.17505556 0.5598179 -0.4608753
000240 06 71 52 3e d9 c5 7b be 0a 01 dd 3c 60 89 7f 3d
       0.20550928 -0.24587192 0.026978035 0.06238687
000250 d0 3f c4 bd 55 cc 99 3d 92 8d 2b 3d 8d a7 81 3e
       -0.09582484 0.07509676 0.04188306 0.25323144
000260 82 63 00 3e 82 d6 70 3e c7 76 24 3e cc e4 af 3d
       0.12537959 0.23519328 0.16060935 0.085885614
000270 2f f8 10 3d c3 86 86 be b1 c2 84 3e e2 ca 3b 3e
       0.035392936 -0.2627469 0.25929788 0.18339112
000280 87 e9 9f 3d 94 a8 ab be 66 a3 ec bd b6 8f 8c be
       0.07808214 -0.33527052 -0.11554603 -0.27453393
000290 2e 0d 9f 3e 36 79 83 3e b3 ba 63 3e 15 9d 91 be
       0.31064743 0.25678414 0.22239189 -0.28440157
0002a0 c5 51 d4 3d dd fc 98 3d 92 52 22 be 00 80 95 3e
       0.10367159 0.07470105 -0.1585181 0.2919922
0002b0 e0 70 18 3f 99 d3 98 be 98 47 2f 3e 21 4e 13 3e
       0.59547234 -0.29848936 0.17117155 0.14385273
0002c0 ff 98 3d 3e 1c 80 bf 3e 7f 16 d4 be 07 c9 3a bc
       0.18515395 0.37402427 -0.41423413 -0.011400468
0002d0 12 d0 8e bd 2f e6 cb 3d a6 9f 97 3e 13 40 f1 be
       -0.0697328 0.099560134 0.2961399 -0.47119197
0002e0 bc 64 98 be 86 7f 15 bf fb bf 98 bd 01 60 45 3b
       -0.29764354 -0.5839771 -0.07458492 0.0030117037
0002f0 e7 a2 82 3e 3d 77 a1 be e4 c1 14 bf 1f 2c 3e 3f
       0.2551491 -0.31536284 -0.58108354 0.74286073
000300 3d a9 1d 3d d6 ea f3 bd ca 8e 3f 3e 9a f5 ba 3d
       0.038491476 -0.11910026 0.18706813 0.09128876
000310 bc 13 19 3e 27 e0 a4 3d 29 d7 2c be 13 5c d6 3c
       0.14948934 0.08050566 -0.16878952 0.026166951
000320 98 1e a0 3d e5 bd 18 3e 73 74 9b 3b aa b5 5c be
       0.07818335 0.14916189 0.0047441064 -0.21553674
000330 57 1f f8 3d 8d 51 15 3e fe 7b ea 3d 1f 89 48 be
       0.121153526 0.1458189 0.11449431 -0.19583558
000340 59 de 41 be 97 87 0f 3b 65 8a 38 be 81 d1 9c be
       -0.18932475 0.0021900886 -0.18021543 -0.3062859
000350 c5 f1 71 be 64 c6 86 be 9d a3 14 3d 95 3d 5b be
       -0.23627384 -0.26323235 0.036288846 -0.2141021
000360 f4 ec 87 be 5f 70 e6 be 65 74 31 3e 25 ea 60 be
       -0.26547968 -0.45007607 0.17329557 -0.21964319
000370 fd 46 92 be 90 0f 37 be 2b 60 b3 be 01 1c 2d bd
       -0.28569785 -0.1787703 -0.35034308 -0.042263035
000380 a3 b0 57 be 1a ec 30 3d 1d d3 95 3e 8c 0b 88 3e
       -0.21063475 0.043193914 0.2926263 0.2657131
000390 9a 75 05 be 5a d0 2c 3e 74 a1 e8 3d 5d 72 13 be
       -0.13033143 0.16876355 0.1135892 -0.14399095
0003a0 6d 3c 73 be 93 ab 28 3e ea 39 06 3e 29 10 94 3d
       -0.2375352 0.164717 0.1310803 0.07229645
0003b0 ed ea 92 be 89 bb 92 3e fb e5 2b 3f 33 f4 aa be
       -0.2869486 0.28658703 0.671478 -0.33389434
0003c0 f7 e4 10 3f 7f 09 b9 3e fd 43 21 3e 9d aa de bc
       0.5659937 0.36140057 0.15748592 -0.027180964
0003d0 81 79 08 3f 47 65 f1 be 12 e3 11 be ab 4b 46 be
       0.533104 -0.4714758 -0.14246777 -0.19364803
0003e0 b4 35 15 be 19 bc ce 3e 68 27 22 bf 39 23 d5 be
       -0.14571267 0.40377882 -0.6334138 -0.41628435
0003f0 26 38 07 3f 35 d8 f6 bc 6d ec 32 be a5 64 b2 be
       0.5282005 -0.030132392 -0.17473002 -0.3484241

lin20.kernel.bias f4 [24]
000000 76 43 b7 bc b2 cc c3 be e2 86 4d 3e ae d5 11 3e
       -0.022371035 -0.38242108 0.20070985 0.14241669
000010 c7 f8 15 3d 87 25 09 3d 6a 13 f4 bd ba e8 84 be
       0.036614206 0.033483054 -0.119177654 -0.25958806
000020 9d 8c b1 bd 1d e3 03 3e 13 81 b5 be 79 23 7b bd
       -0.08669398 0.12879606 -0.35450038 -0.061313126
000030 78 64 9b be a8 e4 68 3e f4 7b 35 be ae 4f a4 3d
       -0.3035009 0.22743475 -0.17723066 0.0802301
000040 83 8a 61 be a4 d1 27 be 4f 9e 41 bd 40 61 48 3d
       -0.22025494 -0.16388565 -0.047270115 0.04892087
000050 9e 12 24 3e a6 c0 e2 3c de e7 04 3e 62 bd 64 be
       0.16022727 0.027679753 0.12979075 -0.22337869

lin21.kernel.weight f4 [576]
000000 89 9f e9 be d1 83 9e bf 7f d9 0c 3f d2 39 a5 bf
       -0.45629528 -1.2383977 0.5501937 -1.290827
000010 ee 21 0a 3f b1 df 25 3f db e4 45 3f b9 af 89 3f
       0.5395802 0.6479445 0.7730233 1.0756751
000020 b3 54 84 bf f2 84 02 be f8 dc 88 be 32 c9 45 be
       -1.0338348 -0.12746027 -0.26731086 -0.19315031
000030 24 88 90 3f 40 40 ad 3f 0d 4b ad bf 68 cb 53 3e
       1.1291547 1.3535233 -1.3538529 0.20683062
000040 b3 cd 08 3e 23 cf 96 bf 84 29 55 bf a0 40 d8 3d
       0.13359718 -1.1781963 -0.8326647 0.10559201
000050 a3 b7 09 3f 00 62 64 3d 60 f2 5b bf 13 20 23 bd
       0.5379583 0.055757523 -0.8591671 -0.03982551
000060 2b 2d 65 be e5 9d 69 be ad 39 ad 3c 15 ef 8f 3e
       -0.22380511 -0.22814138 0.021145666 0.28112093
000070 d6 54 80 be 93 c3 db 3d b9 ae ae 3e 52 f3 e0 bc
       -0.25064725 0.10730662 0.34117678 -0.027459774
000080 00 23 6e be 9a 71 27 be b4 9c 31 3e 7f 09 b2 3e
       -0.23255539 -0.1635193 0.17344934 0.3477287
000090 73 cf a6 be 9a ff 2a 3f be 3e c8 3e eb dc d3 be
       -0.32580146 0.6679627 0.39110368 -0.41379485
0000a0 52 50 07 be 77 10 1c 3e f4 79 c2 be 35 57 b9 3e
       -0.13214234 0.15240656 -0.37983668 0.36199346
0000b0 e3 3e aa 3e f3 3d 59 3e 0f dd 41 bc c6 30 96 be
       0.33251104 0.21215038 -0.01183249 -0.29334086
0000c0 45 b9 45 3d a5 51 18 be d7 81 42 3e 87 e7 1b be
       0.04827239 -0.14874895 0.18994842 -0.1522504
0000d0 de d3 5e 3d 19 1b 49 3d 23 90 5a 3e 7a 54 74 bd
       0.05440127 0.049098108 0.21344046 -0.059650876
0000e0 6c 21 f5 ba 61 44 7e be 29 9a 17 3e ad 4a 9a 3e
       -0.0018701977 -0.24830772 0.14804901 0.30135098
0000f0 4c 93 3c be b6 c9 82 3e f2 ae 1b be d9 f8 60 3e
       -0.18415564 0.25544518 -0.15203455 0.21969928
000100 ef 32 8e bd 37 88 d0 bd f4 ae a3 3e 9e 71 bb 3e
       -0.069433086 -0.10182231 0.31969416 0.3661012
000110 78 77 68 be af a2 0c be e2 03 07 3e e0 5d 4e 3e
       -0.22701824 -0.13733934 0.13185075 0.20152998
000120 29 61 bc 3d d4 a5 f6 3c d8 a1 56 3e ed c8 9b 3e
       0.09198219 0.03010837 0.20960176 0.30426732
000130 12 e0 c7 bd 57 34 b5 3e be 54 d7 bd 3a 72 92 3d
       -0.09759535 0.35391495 -0.1051421 0.07150693
000140 2f 9d 02 bf d5 55 01 3f be c0 1c be 23 f3 ae 3e
       -0.51021093 0.50521594 -0.153079 0.34169874
000150 26 65 03 3f 48 fb 1b be 2f 46 b9 3c b5 da c5 3e
       0.51326215 -0.15232575 0.022616474 0.38643423
000160 5d 3b e7 bd 8f b0 a8 bd 7e d0 0d bd 38 13 b4 3d
       -0.112906195 -0.08236801 -0.03462266 0.08792728
000170 ed 62 bc be 75 cb cf 3d a5 d8 84 3e 88 e9 05 3e
       -0.36794224 0.10146228 0.25946537 0.13077366
000180 f9 94 ce bd 9c 54 86 3f 1a 30 0e bd 8c 88 4f 3f
       -0.10087008 1.0494571 -0.034713842 0.8106773
000190 b7 c9 7f 3e bd 2f 46 3e 40 a6 dc 3d 8c 1f 56 bf
       0.24979292 0.19354148 0.10773897 -0.83641887
0001a0 d0 4b df 3e da 4b ab bd fe e0 e5 bd 4c 96 14 3f
       0.43612528 -0.08364077 -0.112245545 0.58041835
0001b0 22 42 79 be 9b 59 e6 bd 3c 5c 8d 3f ed 4f a7 3d
       -0.24341634 -0.1124756 1.1043773 0.081695415
0001c0 e6 95 0f be 0a 0e 8f 3e 32 6c e5 3e dc 6d 2f bd
       -0.14022025 0.27940398 0.4480911 -0.04282938
0001d0 17 56 d2 be af 64 38 be a2 76 20 3f 8c fd f1 3e
       -0.41081306 -0.18007158 0.6268102 0.47263753
0001e0 68 76 4c 3e 53 95 44 be 4c d9 96 3e 24 92 d0 bd
       0.19967043 -0.19197588 0.2946266 -0.10184124
0001f0 f7 87 15 be bb 23 9b 3d 10 10 b7 bd e7 95 53 3e
       -0.14602648 0.075751744 -0.089386106 0.20662652
000200 03 08 be be ce 7f e6 3d 49 37 e3 be 1d 5f 6f 3e
       -0.37115487 0.112548456 -0.44378117 0.23376127
000210 f4 2b 3e be 59 7b 88 be 6c 70 fd be 7c df b4 be
       -0.18571454 -0.26656607 -0.49499834 -0.35326755
000220 94 7c 34 3e 87 1f de bc 4a 17 13 be ad fe c4 be
       0.17625648 -0.027114643 -0.14364353 -0.38475552
000230 6c 6e 95 3e f8 41 45 3e 05 48 0b bf 03 f1 96 3e
       0.29185808 0.19263446 -0.5440677 0.29480752
000240 59 0c 01 3d 59 ff 67 3e 0c 30 e3 3d 9b 22 c5 3e
       0.031505916 0.22656001 0.110931486 0.38502964
000250 e7 58 44 be 98 1d 64 3e 9d f8 86 bb f6 f1 b8 be
       -0.19174539 0.22276914 -0.0041189925 -0.36122102
000260 c1 c6 44 be d9 14 91 bd 9b 24 8c 3e 16 5c c1 be
       -0.19216444 -0.070840545 0.27371678 -0.37765568
000270 a8 c0 90 3e 22 44 70 be 72 25 b1 3e 3a 8d 30 be
       0.28271985 -0.2346349 0.3459888 -0.17241374
000280 79 93 86 be ca e3 af 3d 45 0e 80 3e 41 f7 ba 3e
       -0.26284388 0.08588369 0.25010887 0.36516765
000290 85 98 28 be 98 c6 07 be 68 a5 0a 3f e0 e3 70 be
       -0.16464432 -0.13259351 0.5415864 -0.23524427
0002a0 32 e0 2c 3e 9b fd 2a 3e 9e 71 12 3e 25 ee a6 3e
       0.16882399 0.16698305 0.14301154 0.32603565
0002b0 63 a1 3c be 87 f7 83 3e 08 26 89 3e 34 97 a7 3e
       -0.18420939 0.25774786 0.26786828 0.32732546
0002c0 27 96 cc 3d f1 52 a1 3e 0a c2 0c 3e 9e 71 01 bd
       0.09989577 0.31508592 0.13745895 -0.031602494
0002d0 56 7f 9d 3e 75 8b 91 3e 0d 87 32 3e b9 2b 67 3e
       0.30761212 0.2842671 0.1743433 0.22575273
0002e0 9c 46 74 3e 04 89 9d 3e c4 0f 30 be 93 40 60 3e
       0.2385506 0.30768597 -0.17193514 0.21899633
0002f0 45 1e 54 be c4 c3 dd 3d f7 1a 04 be 27 5b 93 3e
       -0.20714672 0.10828355 -0.12900911 0.2878048
000300 68 50 93 be 69 19 c9 bd 3b 6a 7d be 2a c4 d8 bd
       -0.28772283 -0.098193 -0.24747555 -0.1058429
000310 6c c5 8e 3e 4a 77 65 3d d9 4b 27 be b0 95 9e be
       0.27884996 0.056021966 -0.16337527 -0.30973577
000320 a8 58 a0 3e 85 0e a6 3e 62 d8 9b be 4a 81 00 be
       0.3131764 0.32432953 -0.30438524 -0.1254932
000330 91 2f 11 3d b1 4c 71 be 4d 30 5d be fe c4 b9 3c
       0.035445753 -0.23564412 -0.21600457 0.022676941
000340 e1 5b ba bd 01 ab e1 3d b1 bd 2a 3d 93 10 15 be
       -0.09099556 0.110189445 0.04168481 -0.14557104
000350 de 80 37 3e 0b 4c ab bc c3 44 49 3d 2c 18 28 be
       0.17920253 -0.020910284 0.049137842 -0.16415471
000360 19 a5 2a be 17 b5 15 3f 48 9c f3 3d a4 c8 e4 3e
       -0.16664542 0.58479446 0.11895043 0.44684327
000370 ce de 97 3e 17 39 87 3e 48 a9 ec 3e 54 04 e1 be
       0.29662174 0.26410744 0.462229 -0.43948615
000380 6c 1c 87 3e 69 2e d9 be 27 1d e9 3e 0c dc 0a bf
       0.26388872 -0.4241822 0.45530054 -0.54242015
000390 0b 16 2f 3f 6b 6d 09 3f bd 7c 17 3f 00 9e 17 3f
       0.6839301 0.53682584 0.5917471 0.59225464
0003a0 2b f0 95 3e 42 8e c6 be d3 e4 6d 3e 37 84 23 bd
       0.29284796 -0.3878041 0.23231821 -0.03992101
0003b0 7d 5c 12 be e5 bc 6d be b6 83 2d 3f f7 38 26 bf
       -0.14293094 -0.23216589 0.677791 -0.6493067
0003c0 63 a8 1d be a7 52 04 3f 18 3b 45 3e 90 2c 86 3b
       -0.15396266 0.5168862 0.19260824 0.0040946677
0003d0 f8 4a 6e bd 87 9c 84 be 4d 76 9f bd 2d df e3 be
       -0.058176965 -0.2590067 -0.07786236 -0.44506207
0003e0 d5 b4 6a 3e 81 98 db bd 87 d2 8e 3e c7 5f c3 be
       0.22920544 -0.10722447 0.27894995 -0.3815901
0003f0 19 c0 57 3e 15 31 9f 3e 32 4b 67 3e ec 90 cb bd
       0.21069373 0.31092134 0.22587278 -0.09939751

lin21.kernel.bias f4 [24]
000000 bb 15 5e 3f d3 cc 8e 3f 36 87 cd bf b9 a0 38 bf
       0.8675191 1.1156257 -1.6056888 -0.72120243
000010 41 84 44 3f e7 9a 47 bf 8a f8 44 3f 50 95 9b 3f
       0.76764303 -0.7797074 0.7694174 1.2154942
000020 36 21 81 3f 41 6d cf bf c6 b9 0b bf d4 df c3 bc
       1.008826 -1.6205217 -0.5458034 -0.02391044
000030 89 b1 ac 3d d2 5b 0c 3e be d0 54 bf 0e b9 f0 3f
       0.084323 0.13706902 -0.83131015 1.8806474
000040 58 e0 4e 3e 5f 62 01 bf 83 12 ec 3f b8 1d 53 3d
       0.20202768 -0.5054073 1.8443149 0.051542014
000050 0a 1c 02 40 f6 9e c7 be e5 d9 0e bf 15 0e 05 c0
       2.0329614 -0.38988465 -0.5580123 -2.0789845

lin22.kernel.weight f4 [576]
000000 c2 26 71 3d 48 25 16 bb 05 84 56 3f 1e a4 87 3e
       0.058874853 -0.0022910405 0.83795196 0.264924
000010 22 f3 2b bf 65 45 bf 3e ff 14 1c be 04 a3 5a bc
       -0.67167866 0.3735763 -0.15242384 -0.01334453
000020 03 5f 24 3f e2 9d 62 bf bb 41 91 bf 34 10 ac bf
       0.64207476 -0.8852216 -1.1348184 -1.3442445
000030 4f 3b 6d 3e 83 d6 2f be 37 de f1 3d 5e 22 a2 3f
       0.23167156 -0.17171673 0.11809962 1.2666738
000040 b0 d6 dd 3c 0e 17 18 bf 97 8a c9 bd 60 d7 99 3e
       0.02707991 -0.5941018 -0.09840887 0.3004713
000050 e4 b9 81 bf d3 d5 9b 3d 0c 0d 73 bf 6a 84 85 3f
       -1.0134854 0.07609143 -0.9494178 1.0431035
000060 1f 22 8b 3d a9 00 83 3e 8d 33 6f bc ff 79 24 be
       0.067936175 0.2558644 -0.014599693 -0.16062163
000070 68 0d bb be 61 22 06 3f 8e 09 69 be db 4a b7 3d
       -0.36533666 0.5239621 -0.22757551 0.089498244
000080 75 1a b5 be f5 1a 53 be 55 39 b7 3d e0 11 9f 3d
       -0.35371748 -0.20615752 0.08946482 0.07767081
000090 c9 f0 06 bf 14 8d 49 bd dc 6a 92 be 40 dc 01 bd
       -0.5271116 -0.04920681 -0.28597152 -0.031704187
0000a0 73 b6 6b 3e 77 38 e2 be 69 23 42 bc e2 73 6f 3e
       0.23018818 -0.44183704 -0.011849263 0.2338405
0000b0 82 b6 a5 3e 65 15 ae 3e d9 f3 8d bd 07 fd 3e be
       0.32365805 0.34000698 -0.06931276 -0.1865121
0000c0 63 19 b4 be 97 00 16 3d 09 20 ca 3e fc 82 be 3e
       -0.3517562 0.036621656 0.39477566 0.37209308
0000d0 7c 98 94 be c1 40 13 be c6 94 75 bd 3d 8f d5 bd
       -0.29022586 -0.1438017 -0.059956335 -0.10427711
0000e0 82 72 3c be 47 10 8e 3d f0 70 13 bf f4 19 09 be
       -0.18403056 0.069366984 -0.57594204 -0.13388807
0000f0 bc 31 e0 3b 4b fd 79 be f9 e2 e9 3e 54 2b 00 3e
       0.0068418663 -0.2441303 0.4568098 0.12516528
000100 b6 d0 bc 3e 14 5d bc 3d cf 67 4a be 40 0c 5c 3e
       0.36877984 0.09197441 -0.19766162 0.21489048
000110 0d 60 06 be a6 57 ae 3e fd b7 24 be 00 59 d0 3d
       -0.13122578 0.34051245 -0.16085811 0.101732254
000120 5b df 84 3e ea 75 8d be 12 0c de bc 00 b0 4b 3e
       0.25951657 -0.27629024 -0.027105365 0.19891357
000130 14 8f c0 3e 18 6a 11 be 5c 24 ad be c0 ac 95 be
       0.3760916 -0.14200628 -0.33816803 -0.2923336
000140 01 50 80 be e7 79 43 3e 25 cc 3c 3f 40 91 15 3e
       -0.25061038 0.19089471 0.73749 0.1460619
000150 c2 a4 5a 3e 9e 18 8c 3d 94 96 a9 3d d2 77 dc 3d
       0.21351913 0.06840633 0.082806736 0.107650414
000160 3c 82 6c 3c 39 58 79 3e 25 b4 37 3e c0 84 a7 3e
       0.014435347 0.2435006 0.17939813 0.32718468
000170 df 38 0e 3e b4 bd b0 bc da ec a5 3b 33 5a 93 3e
       0.13888882 -0.021574832 0.0050636353 0.28779754
000180 d3 11 15 3e ce 4e bd bc 6e a7 83 bd 58 39 d4 3d
       0.1455758 -0.023108866 -0.06428419 0.103625
000190 c7 3c 0b 3f 5f df 9c 3d 87 87 46 3e 35 59 07 be
       0.54389614 0.07659792 0.19387637 -0.13217624
0001a0 52 96 92 bd 0a 9b 00 3e a1 9c bb be 4f 28 6e 3e
       -0.071575776 0.12559143 -0.36642936 0.23257564
0001b0 c9 06 20 3d 82 03 e4 bd c7 f5 65 be 1b 57 96 be
       0.03906897 -0.111334816 -0.22457038 -0.2936333
0001c0 7c 3a 6c 3e 8b 15 df bd fd b6 44 3e ae c5 2c be
       0.23069185 -0.10892781 0.1921043 -0.16872284
0001d0 81 51 13 be 0c 50 57 be 91 6d 1b 3d bb dc d0 3c
       -0.1438656 -0.21026629 0.037946288 0.025495877
0001e0 10 48 82 be 19 d3 66 3c 80 53 92 3e c4 2a f1 bc
       -0.25445604 0.014088416 0.2857933 -0.029439338
0001f0 f5 3a 09 be 7a 14 9e 3d 65 d6 d8 be ba bb da 3d
       -0.13401397 0.07718749 -0.4235107 0.10680337
000200 ab ae 97 3e bf a8 b6 3d 3c ca 8f be 99 b9 bc be
       0.2962545 0.089189045 -0.2808398 -0.3686035
000210 d0 f7 d5 be 71 25 dc 3d eb 93 bc 3d 4c fd f6 be
       -0.41790628 0.10749329 0.092079006 -0.48240125
000220 22 bf 0f be e6 67 dc be 1e 05 bd 3d 6b a0 db bc
       -0.14037755 -0.43048018 0.09229492 -0.026809892
000230 29 47 4a 3e 0e 4f 59 be 31 f6 43 3d 8b 6a 8a be
       0.19753708 -0.21221563 0.04784221 -0.2703441
000240 c0 b4 be bd d2 56 6e 3e a3 6d e3 be d4 70 56 3e
       -0.09311819 0.23275307 -0.44419584 0.20941478
000250 f2 fa 08 3f 2f 46 46 bf fb 7b 5c 3f ca 36 af 3d
       0.5350791 -0.7745084 0.8612668 0.08555372
000260 1e 8e 70 be 4a d1 9c 3e 67 dc 25 3e b4 c1 9b 3e
       -0.23491713 0.30628425 0.16197358 0.3042122
000270 39 6d 8d 3e cc b0 05 3f cd 48 64 3d 03 05 a8 be
       0.27622393 0.52222896 0.05573349 -0.32816324
000280 ec ea b7 bc d9 19 05 3f 6a 2a f7 bd 8d b0 3b bd
       -0.022450887 0.51992565 -0.12068637 -0.04582267
000290 92 f4 8b 3e 19 76 63 bd 79 47 a3 3e 84 a6 4e be
       0.2733503 -0.05553255 0.31890467 -0.20180708
0002a0 08 fa 9f be 4b 67 4c be 2d 77 f4 3e 69 21 fc 3e
       -0.31245446 -0.19961278 0.47747174 0.4924424
0002b0 6d ed 34 bf 96 55 21 3e cd 95 5a be 7a 3b 27 be
       -0.70674783 0.15755305 -0.21346207 -0.16331282
0002c0 f2 64 5f 3f 86 3b 4b be 5b 01 54 be e9 b3 01 bf
       0.87263405 -0.19846925 -0.20703642 -0.50665146
0002d0 8a 50 53 3f 71 30 7b bd 67 e1 6c 3e bd 68 aa 3f
       0.8254477 -0.061325494 0.23132859 1.3313214
0002e0 61 27 89 3e 5d f4 2e bf ec 2d fd 3c 6d cf 9a 3b
       0.26787856 -0.6834162 0.030905686 0.004724434
0002f0 ac eb 14 be f7 64 10 be 8d a6 17 bf a0 a0 21 3f
       -0.14543027 -0.14101015 -0.5923851 0.6313572
000300 08 55 20 bd bc f1 5c bc 1e ef 36 3e 91 42 6a be
       -0.039143592 -0.013485368 0.17864653 -0.22876956
000310 0a 98 54 be 06 54 40 bd 17 9a 19 3e df 9d 4f bd
       -0.20761123 -0.04695513 0.15000187 -0.050687667
000320 29 97 35 bd 67 d4 c8 be 65 4c c6 3e 48 f3 83 3e
       -0.04433361 -0.3922455 0.3873016 0.25771546
000330 3b cd d5 3d ca 71 f3 bc e2 a5 2b 3e 6c c2 23 3e
       0.10439535 -0.029717345 0.16762498 0.15992135
000340 50 8d 50 3d 6d c7 77 bd 56 3b e8 bd fa e4 0f 3e
       0.050916016 -0.06049292 -0.113394424 0.14052191
000350 c7 73 fc bb 03 ea 01 be 4c e3 96 39 fc 4a 99 3d
       -0.0077042314 -0.12686925 0.0002877958 0.07485005
000360 e7 16 d5 be b3 b9 86 3c ca bd 48 3e 1d 7f b5 3e
       -0.41619036 0.01644597 0.19603649 0.35448542
000370 86 a2 ff 3d 80 46 b6 be b0 9f cc 3e af 2b e0 be
       0.12482171 -0.35600662 0.39965582 -0.43783328
000380 e3 12 ef 3e a6 f4 80 3e df 93 8c be dc 8b 95 3e
       0.46694097 0.25186652 -0.27456567 0.29208267
000390 78 af 2f 3e 79 ad 04 3f 26 24 2d 3b 27 56 43 be
       0.1715678 0.518272 0.0026419251 -0.19075833
0003a0 c4 a5 29 3e 17 71 18 3f a2 b2 e0 3d 22 fe 33 3e
       0.16567141 0.5954756 0.109715715 0.17577413
0003b0 2f 30 84 be 3f cd e0 bd c3 ef 9a 3d 34 c8 03 be
       -0.2581801 -0.109766476 0.07565262 -0.1286934
0003c0 2e 8e 2d bf 27 59 b7 bd 7b 4f 69 be 47 a4 88 be
       -0.67795074 -0.08952551 -0.22784226 -0.26687834
0003d0 dd f4 92 3e 25 2c 64 bf e9 28 77 3f b5 9e 05 be
       0.2870244 -0.8912986 0.965468 -0.13048823
0003e0 8a b7 fa bd f8 42 86 3e cb 3c 81 be a0 77 06 3e
       -0.122420385 0.26222968 -0.25241694 0.13131571
0003f0 06 37 d6 3e f9 a0 d3 3e 90 62 1f bd 2c 36 99 be
       0.41838855 0.4133375 -0.038912356 -0.29924142

lin22.kernel.bias f4 [24]
000000 94 86 32 3f 64 2e 39 bf a7 e5 3c bf b6 ac 18 3f
       0.697366 -0.7233641 -0.7378792 0.59638536
000010 df 81 55 3f b6 6f 34 3f b5 04 d3 bf 5b b8 a1 3f
       0.8340129 0.7048296 -1.6485811 1.2634386
000020 25 9a 0d 3e b3 b1 6a 3e 21 a7 34 3f 2c cd a3 bf
       0.13828333 0.2291935 0.7056752 -1.2796988
000030 0a 6b 75 3e 9c e9 a5 bf 86 3b 5c 3f 45 2c 0a 3f
       0.23966613 -1.2961917 0.86028326 0.539738
000040 8e 91 fa be cf e4 dc bf e1 21 4f bd 92 6a 92 3f
       -0.48939174 -1.7257327 -0.05056942 1.1438773
000050 c9 21 1d 3f f7 7c 3f bf 71 2a 26 bf dd 88 16 3f
       0.6137968 -0.74800056 -0.6490851 0.58802587

nonlin11.b.1 f4 [24]
000000 90 79 6f bd 51 25 88 bd 8d 8d 5f be 7d 15 82 be
       -0.05846554 -0.066477425 -0.21831341 -0.2540702
000010 a2 9c d9 3e 07 d5 f3 3d 26 ec 7b bd 88 db 59 be
       0.42502314 0.11905866 -0.061504506 -0.21275151
000020 cb c1 52 be d2 b7 b6 3e 06 66 17 bd 4b 1c 0b 3e
       -0.20581739 0.3568712 -0.03696253 0.13585012
000030 df 27 c3 3e 50 4c 9b bb 45 c0 ce 3e 0c 6c d4 bd
       0.38116357 -0.004739322 0.40381065 -0.10372171
000040 42 91 42 bd 6e 0a b2 3e 4c b3 18 be eb fd 99 be
       -0.04750181 0.34773582 -0.14912146 -0.30076537
000050 26 47 2c bc 80 4e 19 be e6 43 8d 3e f7 26 ab bd
       -0.01051501 -0.14971352 0.27590865 -0.08357041

nonlin12.b.2 f4 [24]
000000 ae 5d fb 3e a3 dc ce 3d 68 44 91 be d9 89 c8 bd
       0.4909491 0.10100677 -0.28372502 -0.09791917
000010 25 93 a7 bd 42 fe 9b 3d 7d 3f b3 3e 89 45 63 3e
       -0.081823625 0.07616855 0.35009375 0.22194494
000020 32 50 ca bd 85 d9 37 3e e4 95 ee 3e 8d 36 f5 3e
       -0.09878577 0.17954071 0.46598732 0.4789318
000030 3a 91 2b be 30 41 fa bd 57 47 12 be 60 c3 b2 3e
       -0.16754618 -0.12219465 -0.14285026 0.34914684
000040 b0 71 c8 bc a9 81 9a bd 53 77 05 bd 4b 3a f0 bc
       -0.024468273 -0.07544262 -0.0325845 -0.029324671
000050 fd d6 ac 3e 27 f7 bd bd e0 6e c7 bb 49 46 49 be
       0.33757773 -0.09275656 -0.0060862154 -0.19655718

lin30.kernel.weight f4 [288]
000000 5c 17 66 3e f9 2b a9 bd 0d 97 14 3e 08 1e 90 be
       0.22469848 -0.0826034 0.14510746 -0.28147912
000010 d4 51 8f 3e dc 22 90 3e a7 c7 40 3b 38 fb 51 3e
       0.27992117 0.28151596 0.0029415877 0.20505989
000020 93 41 8c 3b 9f c4 90 3e 46 05 44 be 99 3c 36 bd
       0.004280278 0.2827501 -0.19142637 -0.044491384
000030 67 21 da 3d 48 2f f8 bd 88 f8 0a 3e 4b 3b b9 be
       0.10650902 -0.12118393 0.1357137 -0.3617805
000040 3a 04 01 3e 03 08 4a be 22 11 b3 3e 2d 32 ba bd
       0.12599269 -0.19729619 0.3497401 -0.090916015
000050 9e 11 56 3e 9f 48 85 be 60 14 15 be 45 84 3f be
       0.20905158 -0.26031968 -0.14558554 -0.187028
000060 a3 cf dd 3d 42 64 52 be 1f 22 9e 3e 73 7a 27 3d
       0.10830619 -0.20546058 0.30885407 0.04088826
000070 04 b5 d2 bc c8 a1 ee bd 51 91 dc bd 6e 5d ac 3e
       -0.02572108 -0.11651951 -0.107699044 0.3366503
000080 a5 1f 76 be c0 59 c1 be 8d c4 ea 3d 2c 64 05 3e
       -0.24035509 -0.37763786 0.1146327 0.13026494
000090 e1 7f 62 3e 53 da fa 3d 6c 79 f7 3c ea 5f d6 3a
       0.22119094 0.12248673 0.030209266 0.0016355489
0000a0 5d 73 04 3e 7d be d4 3d 66 2b b7 3e 73 4e ab 3d
       0.12934633 0.10387895 0.35775298 0.083645724
0000b0 00 50 1a 3d c4 15 2f 3e 86 08 0f bd b8 76 4e be
       0.03767395 0.17098147 -0.034920238 -0.20162475
0000c0 94 96 7d be 81 f9 5b 3e b0 08 b6 bd 7a 33 5b 3d
       -0.24764472 0.21481897 -0.08888376 0.05351589
0000d0 ea 79 be bd 49 54 19 be 25 c5 91 be ef 0d 60 bd
       -0.09300597 -0.14973558 -0.28470722 -0.054700788
0000e0 2c 33 20 be 25 6f 82 3d e5 fa 15 bb 11 19 4a 3e
       -0.1564452 0.063688554 -0.002288514 0.19736125
0000f0 42 05 46 3e 3e 49 e3 3e 5c 05 1e bc 7f 04 4a 3e
       0.19337943 0.44391817 -0.009644832 0.19728278
000100 fe b7 ae 3e 21 15 38 be a6 5b e2 3e ad eb 93 be
       0.3412475 -0.1797681 0.44210547 -0.28890744
000110 42 56 ed be 6c 24 cd bd 77 2f 91 3c 85 4e 01 3e
       -0.46354872 -0.100167125 0.017722828 0.12627609
000120 9a e2 dd bc 93 b4 19 be da 01 81 3e e6 df 7e be
       -0.027085591 -0.1501029 0.25196725 -0.24890098
000130 e6 3d d2 3c c3 b2 9e 3d 4f 25 fb 3d a9 da 6c 3d
       0.025664281 0.0774894 0.122629754 0.057825718
000140 04 42 96 3e 0a 48 9e bd 16 4b a4 be 80 e9 d9 3c
       0.2934724 -0.07728584 -0.32088536 0.0266006
000150 cc cc eb 3d 0c d5 d2 3c 39 88 39 3d f1 21 dc be
       0.11513671 0.025736354 0.045295928 -0.42994645
000160 4c 84 f7 be a0 3a a8 be 64 f5 3b bd 86 15 9f 3e
       -0.48343122 -0.32857227 -0.04588832 0.3107111
000170 8e 2c 00 bf fc cd 03 be ee 9f b7 be aa f1 a7 3e
       -0.50067985 -0.12871546 -0.35864204 0.32801563
000180 74 4f 1d 3e 11 29 94 be 5e ed e9 3d db ba 9e be
       0.1536234 -0.2893758 0.11422227 -0.31001934
000190 41 fd 1e 3c 23 7e bf 3e 8d ba df 3e fc 0a b9 be
       0.009703935 0.37400922 0.43697014 -0.36141193
0001a0 09 d1 cd 3e a6 b4 6e 3e 24 c3 25 be e6 b2 2f bc
       0.40198544 0.233111 -0.16187721 -0.010723805
0001b0 bc b8 8f be 08 f3 71 3e 16 18 04 3f 06 6e af 3d
       -0.2807063 0.23627865 0.5159925 0.08565907
0001c0 4f 08 2c be 89 66 05 3c 44 5f 8f 3e e7 eb a0 be
       -0.16800044 0.008142122 0.2800237 -0.3142998
0001d0 dd 4b 66 3e c1 2e dc bd 12 fe 7e 3e 1a 4a 33 3e
       0.22489877 -0.10751105 0.24901608 0.17508736
0001e0 ce 69 c7 bd 6c 9f 13 bc 85 76 43 be 6a a3 db 3c
       -0.097369775 -0.009010177 -0.1908818 0.02681132
0001f0 9c 15 8b bd b4 12 db 3d 5a 88 83 be f2 00 22 be
       -0.06791231 0.10696927 -0.25689965 -0.15820673
000200 61 b1 48 be c0 e9 dc 3e 98 68 80 3d e0 d1 71 3d
       -0.19598915 0.43147087 0.0626995 0.059038043
000210 65 bf 11 3e 68 7d 28 be 1c 14 76 be 87 a0 b4 bc
       0.14233167 -0.16454089 -0.24031109 -0.022049202
000220 5b b2 d3 be 4e 50 82 be 70 fc bb be 7e b2 bf 3e
       -0.41347012 -0.25451893 -0.36716032 0.37440866
000230 4d 47 06 be 1c 26 3c be 12 83 84 be 48 22 34 3e
       -0.13113137 -0.18373913 -0.2588125 0.17591202
000240 3e 87 9f 3c 59 4a 6e 3f fb 56 3a bf f9 d0 e3 be
       0.019473668 0.93082196 -0.7278897 -0.4449537
000250 50 39 4f bd 7b d0 0b be e4 3a 38 bd 40 43 4c 3f
       -0.050591767 -0.13653748 -0.044978037 0.79790115
000260 a4 15 49 3e 68 95 06 bf 7f e1 3f 3f ac 80 ee bc
       0.19637161 -0.52571726 0.74953455 -0.02911409
000270 8f fc 29 3f 94 2a 3b bf 59 34 95 3e e2 b3 a0 3d
       0.66401 -0.73111844 0.291415 0.0784681
000280 d3 bd f9 3e 4b da 14 3f 46 c3 2d 3d d4 b5 eb bd
       0.48777637 0.5814559 0.042422555 -0.1150929
000290 6e de f9 be e8 0a 8d be 63 17 fc be 96 a6 08 3f
       -0.48802513 -0.27547383 -0.49236593 0.5337919
0002a0 df 03 3a bd 5e 51 dc be 22 f4 7e 3e 60 04 07 bc
       -0.045413848 -0.43030828 0.24897817 -0.008240789
0002b0 60 a9 f7 bd e4 de b7 3e 4c bc a5 be 6f 3a 2d be
       -0.120928526 0.3591224 -0.32370222 -0.16916822
0002c0 1e 55 e8 3d bf 23 36 be 1a 65 fe be a3 43 27 3d
       0.1134436 -0.17787074 -0.4968651 0.040835988
0002d0 49 41 17 bf 27 de 36 3e 65 8d 2d 3d 01 84 1c 3e
       -0.5908399 0.17858182 0.042371172 0.1528473
0002e0 06 1f 88 be 40 e1 20 3e eb a6 88 3e ef 1c d0 bc
       -0.2658617 0.15710926 0.26689848 -0.025404422
0002f0 7c 3b 20 be 97 92 a5 be d9 3d cd 3e 30 01 99 be
       -0.15647691 -0.32338402 0.4008625 -0.29883718
000300 ce 01 b2 bd bc 7d 5f 3e 1d d9 b2 3d 46 69 8f be
       -0.086917505 0.21825308 0.08732817 -0.28010005
000310 aa bd bd 3d df 59 91 3d ce d5 2f 3e ba 81 3c be
       0.09264691 0.0709722 0.17171404 -0.18408862
000320 ff 04 1e bc 5a af 24 be f6 ce 61 be 4c b7 e1 be
       -0.009644746 -0.16082516 -0.22051606 -0.44085157
000330 ea 58 b9 be 88 27 19 be c1 1b c1 3d 8e 1c 2b be
       -0.3620065 -0.14956486 0.09429122 -0.16710111
000340 68 0b 4c 3b cb 6f d7 bd dd 6c 1f 3e c1 ef 74 be
       0.0031134728 -0.1051937 0.15568872 -0.23919584
000350 5b ab fa be 92 43 91 3e f4 37 d6 3c 99 62 49 bd
       -0.4895886 0.28371865 0.026149727 -0.049166296
000360 7b af 42 be 28 a6 23 3e 99 f8 a7 3e cf 92 64 3e
       -0.19012253 0.15981352 0.32806852 0.22321628
000370 2f 96 7a bc 6f 85 0b 3e cb 49 9c 3e aa 62 8a 3d
       -0.015294596 0.1362512 0.3052505 0.067571
000380 a3 3d 2e 3e c6 e0 ad 3e a8 3b af 3e 24 dc bd 3d
       0.170157 0.3396055 0.34225202 0.09270504
000390 20 dc 2e 3e 10 3c 06 3d c6 45 19 3d ad 15 50 be
       0.17076159 0.032772124 0.037420057 -0.20320769
0003a0 50 90 4d be 06 1e 10 be 01 2a a9 be 83 f0 93 3e
       -0.20074582 -0.14073953 -0.3303986 0.28894433
0003b0 aa 8b 60 be 2b 8e c7 3e d5 1c 29 3c e4 0e b5 3e
       -0.21928278 0.38975653 0.0103218155 0.35362923
0003c0 df 77 00 be 94 36 6b 3e c4 70 78 be 40 65 b9 3d
       -0.12545727 0.22970039 -0.24261767 0.09052515
0003d0 db 9c 07 be 33 a9 56 be a4 ca d5 3d 7b 8c ba be
       -0.1324343 -0.20962982 0.10439041 -0.36435303
0003e0 a6 5e 6d be be 8a e2 bd 70 a6 61 be 72 81 4c be
       -0.23180637 -0.11061619 -0.22036147 -0.19971254
0003f0 8b 71 a4 be c8 8a e1 3e 8a 23 8b bd b2 06 be bd
       -0.32117876 0.44051194 -0.06793888 -0.09278621

lin30.kernel.bias f4 [12]
000000 71 94 1a 3e dc 46 4b bd e3 c7 a8 3c b3 30 12 bd
       0.15095688 -0.049628124 0.020603126 -0.035690974
000010 3c 25 61 3d 96 9c 2b 3c 74 7e 13 bf fd da 4c 3e
       0.05496715 0.010474345 -0.5761483 0.20005412
000020 db d0 2b bd 6d 4e 35 bd d4 d0 a2 bc 19 98 27 3c
       -0.041947227 -0.044264246 -0.019874968 0.010229134
